…
 So, as we scale up to the full ResNet, we won&#39;t show the original one, but the tweaked one, since it&#39;s substantially better. It differs a little bit from our previous implementation, in that instead of just starting with ResNet blocks, it begins with a few convolutional layers followed by a max pooling layer. This is what the first layers look like: . def _resnet_stem(*sizes): return [ ConvLayer(sizes[i], sizes[i+1], 3, stride = 2 if i==0 else 1) for i in range(len(sizes)-1) ] + [nn.MaxPool2d(kernel_size=3, stride=2, padding=1)] . #hide_output _resnet_stem(3,32,32,64) . [ConvLayer( (0): Conv2d(3, 32, kernel_size=(3, 3), stride=(2, 2), padding=(1, 1), bias=False) (1): BatchNorm2d(32, eps=1e-05, momentum=0.1, affine=True, track_running_stats=True) (2): ReLU() ), ConvLayer( (0): Conv2d(32, 32, kernel_size=(3, 3), stride=(1, 1), padding=(1, 1), bias=False) (1): BatchNorm2d(32, eps=1e-05, momentum=0.1, affine=True, track_running_stats=True) (2): ReLU() ), ConvLayer( (0): Conv2d(32, 64, kernel_size=(3, 3), stride=(1, 1), padding=(1, 1), bias=False) (1): BatchNorm2d(64, eps=1e-05, momentum=0.1, affine=True, track_running_stats=True) (2): ReLU() ), MaxPool2d(kernel_size=3, stride=2, padding=1, dilation=1, ceil_mode=False)] . [ConvLayer( (0): Conv2d(3, 32, kernel_size=(3, 3), stride=(2, 2), padding=(1, 1)) (1): BatchNorm2d(32, eps=1e-05, momentum=0.1) (2): ReLU() ), ConvLayer( (0): Conv2d(32, 32, kernel_size=(3, 3), stride=(1, 1), padding=(1, 1)) (1): BatchNorm2d(32, eps=1e-05, momentum=0.1) (2): ReLU() ), ConvLayer( (0): Conv2d(32, 64, kernel_size=(3, 3), stride=(1, 1), padding=(1, 1)) (1): BatchNorm2d(64, eps=1e-05, momentum=0.1) (2): ReLU() ), MaxPool2d(kernel_size=3, stride=2, padding=1, ceil_mode=False)] . jargon: Stem: The stem of a CNN are its first few layers. Generally, the stem has a different structure to the main body of the CNN. . The reason that we have a stem of plain convolutional layers, instead of ResNet blocks, is based on a very important insight about all deep convolutional n
…
he adaptive average pooling layer. The &quot;body&quot; is everything else, and includes the &quot;stem&quot; (which we learned about in &lt;&gt;).&lt;/p&gt; &lt;/blockquote&gt; &lt;/div&gt; &lt;/div&gt; &lt;/div&gt; If we take all of the layers prior to the cutpoint of -2, we get the part of the model which fastai will keep for transfer learning. Now, we put on our new head. This is created using the function create_head: . #hide_output create_head(20,2) . Sequential( (0): AdaptiveConcatPool2d( (ap): AdaptiveAvgPool2d(output_size=1) (mp): AdaptiveMaxPool2d(output_size=1) ) (1): full: False (2): BatchNorm1d(20, eps=1e-05, momentum=0.1, affine=True, track_running_stats=True) (3): Dropout(p=0.25, inplace=False) (4): Linear(in_features=20, out_features=512, bias=False) (5): ReLU(inplace=True) (6): BatchNorm1d(512, eps=1e-05, momentum=0.1, affine=True, track_running_stats=True) (7): Dropout(p=0.5, inplace=False) (8): Linear(in_features=512, out_features=2, bias=False) ) . Sequential( (0): AdaptiveConcatPool2d( (ap): AdaptiveAvgPool2d(output_size=1) (mp): AdaptiveMaxPool2d(output_size=1) ) (1): Flatten() (2): BatchNorm1d(20, eps=1e-05, momentum=0.1, affine=True) (3): Dropout(p=0.25, inplace=False) (4): Linear(in_features=20, out_features=512, bias=False) (5): ReLU(inplace=True) (6): BatchNorm1d(512, eps=1e-05, momentum=0.1, affine=True) (7): Dropout(p=0.5, inplace=False) (8): Linear(in_features=512, out_features=2, bias=False) ) . With this function you can choose how many additional linear layers are added to the end, how much dropout to use after each one, and what kind of pooling to use. By default, fastai will apply both average pooling, and max pooling, and will concatenate the two together (this is the AdaptiveConcatPool2d layer). This is not a particularly common appro
…
